final_model.pth (torch_old, 2847 bytes, 9 tensors)

rnn_seek.weight_ih_l0 f4 [2, 4]
-0.06602792 0.23909603 0.5069665 0.14104225 -0.22954994 -0.3285744 -0.397217 0.23230481
00000000: a539 87bd 97d5 743e 8ec8 013f 616d 103e
00000010: 240f 6bbe e73a a8be 0760 cbbe 50e1 6d3e

rnn_seek.weight_hh_l0 f4 [2, 2]
0.03667762 0.35008335 0.08416355 0.24520528
00000000: 463b 163d 203e b33e f05d ac3d 1817 7b3e

rnn_seek.bias_ih_l0 f4 [2]
0.20053767 -0.57716775
00000000: bf59 4d3e 44c1 13bf

rnn_seek.bias_hh_l0 f4 [2]
0.2471172 0.2620194
00000000: 4b0c 7d3e 6827 863e

rnn_service.weight_ih_l0 f4 [2, 4]
0.5522594 -0.5573552 0.28627834 0.33455655 0.21611747 -0.5781097 0.0742704 -0.09171653
00000000: df60 0d3f d5ae 0ebf 1393 923e ff4a ab3e
00000010: e64d 5d3e fffe 13bf 141b 983d e0d5 bbbd

rnn_service.weight_hh_l0 f4 [2, 2]
-0.16318867 -0.11844482 -0.8881912 -0.5898243
00000000: ee1a 27be 3393 f2bd 8060 63bf bafe 16bf

rnn_service.bias_ih_l0 f4 [2]
-0.5315787 0.19375221
00000000: 8b15 08bf fb66 463e

rnn_service.bias_hh_l0 f4 [2]
-0.30929562 -0.5480529
00000000: ff5b 9ebe 324d 0cbf

fc2.0.weight f4 [1, 285]
-0.09117363 0.051366888 -0.013292842 0.022603728 -0.03010788 -0.013400555 0.058102746 -0.039188806
-0.038820542 -0.005110178 -0.049306545 0.008913554 -0.072368294 -0.050650463 -0.020472066 0.047483914
0.043921236 0.0096398145 -0.047375027 0.04382307 0.051559687 0.049169257 -0.026273357 -0.002104085
0.012489037 -0.040619716 0.02191347 0.008761235 0.06693271 -0.005239833 0.029587535 -0.009854861
-0.044889778 -0.040950704 -0.037916914 -0.055072583 0.043435827 -0.004942436 -0.028164895 -0.03224898
-0.046495833 0.038238958 -0.012414728 0.035576113 -0.035649013 0.04322873 0.02700738 -0.05780207
-0.021781217 0.055901386 0.005002079 -0.008723229 -0.029848076 0.048518352 0.0058596577 -0.05244137
-0.01647812 0.017266922 -0.006428088 -0.050234772 0.0113140205 -0.0561384 -0.016061263 -0.017719783
0.004144555 0.032928534 -0.0354369 -0.031267516 -0.043377124 -0.042801548 -0.04403311 -0.028998595
-0.012650017 -0.0064353123 -0.052579228 -0.05589734 0.06748215 -0.051976062 0.009552355 -0.037512872
-0.037964057 0.020486131 -0.038987093 -0.051282488 -0.047336712 0.029925212 -0.042411998 -0.02841758
-0.011503133 -0.0003782697 -0.00418134 -0.0266064 0.03588893 -0.01960244 -0.0077388342 0.051496215
-0.031515375 -0.036418844 -0.034491975 0.017523497 0.01610518 0.047563635 -0.009051417 -0.022699129
-0.08387485 -0.020404313 0.012323369 -0.022565719 -0.008823455 0.05617664 0.08703534 0.05299028
0.013191223 0.023578927 -0.027920902 -0.052686926 0.038980417 -0.009760197 -0.009032304 -0.018437456
-0.02717946 -0.03672184 -0.061404455 -0.043039422 -0.07583727 0.041740246 0.01876832 -0.04477899
0.050392 0.019216843 0.048810452 0.03710726 -0.033661146 -0.024431668 0.071032144 0.0052737743
0.025520612 -0.00091356784 -0.056000933 0.025845617 0.0876839 -0.27240354 -0.11389713 -0.5695159
-0.13438702 -0.11666652 -0.16580091 -0.50858575 0.24669212 -0.22816773 0.03798504 0.108619794
0.10110624 0.16574068 -0.005694885 -0.0714416 -0.1399531 -0.25742722 -0.15547733 -0.13034964
-0.28390458 -0.026313592 0.30191264 0.122121625 0.096765995 0.022322394 0.17868252 0.10272728
-0.17407444 -0.070207804 -0.15442275 -0.09193232 -0.080114946 0.14328831 -0.08361898 0.056637462
-0.02869449 0.20717847 -0.26102814 -0.022856504 -0.106616326 0.014109637 -0.011398168 -0.115698494
0.14089276 0.1006695 0.0933284 0.11017666 -0.0911458 -0.07969446 0.04132354 -0.055348497
0.040697448 0.1290524 -0.09748283 0.036157113 0.036425572 0.014436925 -0.05311047 -0.026304815
0.0073539577 0.13738222 0.057336815 0.07736453 0.063287236 -0.006017914 -0.01244529 0.02802939
0.087250575 0.06850209 -0.036369137 -0.09328293 0.032010414 -0.04613958 0.019046998 0.08581461
0.008965602 0.06859296 0.061647046 -0.011780308 -0.07363222 -0.053807594 -0.07979737 0.01048343
0.059665993 0.11721825 0.038358476 0.04304963 0.100645885 0.09640308 0.0326788 0.017544528
0.079236485 -0.004799762 -0.042966925 0.06599833 0.050340295 0.14230312 0.053241055 -0.013050843
-0.03152418 0.0033507766 -0.053535186 -0.039409116 -0.1055836 -0.2035707 -0.05499595 -0.13530785
0.07087068 0.008742664 0.15235634 0.15362549 0.05999199 0.11649939 -0.12544566 -0.19968951
00000000: 3db9 babd 1666 523d 38ca 59bc 742b b93c
00000010: cda4 f6bc 008e 5bbc 25fd 6d3d 7184 20bd
00000020: 4a02 1fbd 4873 a7bb a9f5 49bd 280a 123c
00000030: d435 94bd dc76 4fbd 09b5 a7bc 7e7e 423d
00000040: c1e6 333d 50f0 1d3c 510c 42bd d27f 333d
00000050: 4030 533d b465 493d 393b d7bc b0e4 09bb
00000060: d19e 4c3c dc60 26bd e183 b33c 488b 0f3c
00000070: 0414 893d e8b2 abbb 8f61 f23c 4876 21bc
00000080: 58de 37bd edbb 27bd c44e 1bbd ca93 61bd
00000090: c4e9 313d 28f4 a1bb 11ba e6bc 8217 04bd
000000a0: 6a72 3ebd 74a0 1c3d 2567 4bbc 42b8 113d
000000b0: b304 12bd 9c10 313d 953e dd3c ddc1 6cbd
000000c0: 866e b2bc daf8 643d 7be8 a33b e0eb 0ebc
000000d0: f483 f4bc 2ebb 463d 5f02 c03b c3cc 56bd
000000e0: 1ffd 86bc 5c73 8d3c b6a2 d2bb fac2 4dbd
000000f0: 715e 393c 61f1 65bd e992 83bc 1429 91bc
00000100: 0ccf 873b 12e0 063d 4826 11bd 5e12 00bd
00000110: 36ac 31bd ad50 2fbd 105c 34bd 768e edbc
00000120: 0442 4fbc 50df d2bb 515d 57bd 9cf4 64bd
00000130: 1534 8a3d dae4 54bd 7b81 1c3c 19a7 19bd
00000140: 3380 1bbd 88d2 a73c eeb0 1fbd 960d 52bd
00000150: 24e4 41bd b825 f53c 34b8 2dbd fccb e8bc
00000160: a377 3cbc 8052 c6b9 9f03 89bb aaf5 d9bc
00000170: 4500 133d 4c95 a0bc 0c96 fdbb b2ed 523d
00000180: 4416 01bd ed2b 15bd 7547 0dbd 708d 8f3c
00000190: 03ef 833c 16d2 423d 654c 14bc 86f3 b9bc
000001a0: 94c6 abbd f226 a7bc f5e7 493c bedb b8bc
000001b0: 4190 10bc 7a19 663d 963f b23d 560c 593d
000001c0: 0020 583c 9828 c13c 60ba e4bc 3fce 57bd
000001d0: eea9 1f3d 3ce9 1fbc 3bfc 13bc 260a 97bc
000001e0: 75a7 debc a469 16bd 3d83 7bbd 1b4a 30bd
000001f0: 9250 9bbd d2f7 2a3d 05c0 993c 2d6a 37bd
00000200: d767 4e3d a46c 9d3c 78ed 473d c8fd 173d
00000210: 45e0 09bd ec24 c8bc 4d79 913d a0cf ac3b
00000220: 9a10 d13c 807c 6fba 3c61 65bd 30ba d33c
00000230: 9e93 b33d 7a78 8bbe e642 e9bd cbcb 11bf
00000240: c09c 09be dbee eebd b7c7 29be ad32 02bf
00000250: dc9c 7c3e cda4 69be 3496 1b3d 0e74 de3d
00000260: ca10 cf3d edb7 293e 289c babb f94f 92bd
00000270: de4f 0fbe 80cd 83be 7335 1fbe 607a 05be
00000280: f15b 91be 9a8f d7bc 4b94 9a3e e71a fa3d
00000290: 402d c63d 74dd b63c 8df8 363e ae62 d23d
000002a0: 9240 32be 1cc9 8fbd ff20 1ebe 0347 bcbd
000002b0: 4e13 a4bd 2cba 123e 6e40 abbd affc 673d
000002c0: b510 ebbc 9826 543e 7ba5 85be 903d bbbc
000002d0: a959 dabd 1b2c 673c 62bf 3abc 55f3 ecbd
000002e0: 3146 103e d02b ce3d f622 bf3d 4da4 e13d
000002f0: a6aa babd d936 a3bd df42 293d 1bb5 62bd
00000300: 5eb2 263d 5026 043e 14a5 c7bd 7b19 143d
00000310: fb32 153d da88 6c3c 5d8a 59bd 327d d7bc
00000320: 78f9 f03b edad 0c3e 02da 6a3d 4b71 9e3d
00000330: bd9c 813d ec31 c5bb 54e7 4bbc e49d e53c
00000340: 6eb0 b23d d34a 8c3d cef7 14bd 1f0b bfbd
00000350: 5a1d 033d dbfc 3cbd 7308 9c3c 92bf af3d
00000360: 76e4 123c 777a 8c3d 9d81 7c3d 3102 41bc
00000370: 7dcc 96bd 5a65 5cbd ce6c a3bd b1c2 2b3c
00000380: 5464 743d 1f10 f03d c71d 1d3d cf54 303d
00000390: 6e1f ce3d fa6e c53d 35da 053d 8bb9 8f3c
000003a0: bd46 a23d 5247 9dbb 16fe 2fbd 222a 873d
000003b0: a031 4e3d e9b7 113e 4b13 5a3d 34d3 55bc
000003c0: 801f 01bd b498 5b3b b647 5bbd 746b 21bd
000003d0: 373c d8bd d674 50be 6f43 61bd 248e 0abe
000003e0: a624 913d 643d 0f3c 4d03 1c3e 0050 1d3e
000003f0: 29ba 753d 3b97 ee3d d474 00be 687b 4cbe
